ATPM.ckpt (torch, 38696 bytes, 14 tensors)

Bilstm.weight_ih_l0 f4 [80, 2]
00000000: aa23 8fbe 1b81 293e b3d8 0abe 48b8 b93e
00000010: ac83 0cbf 2fe9 cfbd ce3b 9bbd f3c0 413f
00000020: 6f6b eb3d 9336 fbbd 6e06 b2bd 983e d73e
00000030: 82a7 20be b650 ca3e 9941 95bd 76cf 663f
00000040: d480 e03e 0461 22be 3706 be3e 28ef 0fbe
00000050: 821a e6bd 1272 5f3e 4ec5 923d b319 24bf
00000060: 598b 773d 06b8 1dbf f090 fc3d 8502 823d
00000070: f309 9cbd 9705 623f 0e80 9b3e 063d eabc
00000080: ff09 593e 614d 13be 7056 f2bd f42f 0e3e
00000090: 83f4 263e f5a1 18be cab1 403e df7e dabd
000000a0: d171 34be 0b43 4c3e b12d 973e 3a84 823e
000000b0: 7f3d 83be 07d0 d63d 6947 d9bd 4bd6 c23b
000000c0: 7098 75be 09c4 fe3c d3cf d4bd ae32 71be
000000d0: c136 173f f886 a5bc ace4 c0be b141 0a3d
000000e0: 9a69 ba3e da5a b73d 55de a93e d50d 8b3e
000000f0: 495b 9c3e 8a2a cc3d 39f1 90be f483 80bd
00000100: 03cb c3be aa96 653e 38ef 2f3f 7926 203e
00000110: 18bc f6bd b47d af3d 271e 9b3e 22d2 1f3d
00000120: 0991 173e b586 81bd a10e 453f 40c8 2e3e
00000130: e464 e23e 4be8 96bc 571f 713d cf59 5cbe
00000140: 60eb 993e 0a2f 88be 74cb 0e3f 742d 733e
00000150: 8d0b c4be 49a0 823e a497 b9be c006 f4bc
00000160: 58be 41be ee71 893e 8712 853e 1d1f ef3d
00000170: c063 84be 9941 ad3c 0873 1ebf 4f5e 8c3e
00000180: a85e 283f 9701 15be 4c3e d83d 000d bbbe
00000190: 969f 903e d33e 88be cb0f 7f3d 3bd3 13bf
000001a0: 118a 42bd 714d a53c d9a3 6dbf 5a35 e0bc
000001b0: 2488 7a3e efd8 6cbc ceae c83d 042f 713e
000001c0: af1a eebe 3951 093d 1986 cd3e 2726 003e
000001d0: 3882 d63e 1244 733e f86c df3d f5fb 9dbe
000001e0: 6334 9dbe 2aaa a53e 9088 323e 3528 4ebe
000001f0: f671 a4be c494 603e 5525 c93e edcb 99bd
00000200: 7d85 ddbd ab1e 653d 15a5 df3e e07d 21bd
00000210: ca70 163f 15b9 a83d 431b 3b3f f905 1a3e
00000220: b084 2abe f79a 5b3e 7414 a4bd f02c 133f
00000230: 6c3e 093e f53e b9bd d4a6 9d3d 5209 26bf
00000240: 2035 833d 82e9 41bf ad90 773e 4615 8abe
00000250: 9bcc 2d3f e4cb d43d f079 c1bd 629e 403e
00000260: c337 a9bd 716f 093f 244d 293f 456e c63d
00000270: b6b8 0b3e ac3e 4b3e 4fb9 5d3d ef27 44bf
-0.27956897 0.16553156 -0.13559227 0.36273408 -0.54888415 -0.10151898 -0.07579766 0.7568504
0.11495101 -0.122662686 -0.086926326 0.42039943 -0.15688899 0.39514703 -0.072879024 0.9016031
0.43848288 -0.15857321 0.37114117 -0.14056075 -0.11235525 0.21820858 0.07166539 -0.64101714
0.060435627 -0.6160892 0.12332332 0.06348137 -0.07619085 0.8828978 0.30371135 -0.028593551
0.2119522 -0.14384986 -0.11832893 0.1388548 0.16304211 -0.14905532 0.18817821 -0.1066873
-0.17621543 0.1994745 0.29527047 0.25491506 -0.25632855 0.10488897 -0.106093235 0.005945956
-0.23983932 0.031099336 -0.10391202 -0.23554489 0.5906792 -0.02020596 -0.37674463 0.033754054
0.36408693 0.089528754 0.33177438 0.2715899 0.30538395 0.09969051 -0.28309038 -0.06275168
-0.38240823 0.22420755 0.68724394 0.15639676 -0.12047595 0.08568898 0.30296442 0.039018758
0.1480142 -0.063245215 0.76975447 0.17068577 0.44217598 -0.018421313 0.05886778 -0.21518634
0.3006239 -0.26598388 0.55779195 0.23747808 -0.38290063 0.25512913 -0.36248505 -0.029788375
-0.18920267 0.26844734 0.25990698 0.11675856 -0.25857353 0.021149443 -0.61894274 0.27415702
0.65769434 -0.14551388 0.10558757 -0.36533356 0.28246754 -0.2661043 0.06227092 -0.5774419
-0.04749495 0.020178529 -0.92828137 -0.02736919 0.24465996 -0.014456018 0.09798966 0.23553091
-0.46504733 0.033524726 0.4014137 0.12514554 0.41896224 0.23756436 0.10909456 -0.3085629
-0.3070403 0.32356387 0.17434907 -0.20132525 -0.32118195 0.2193175 0.39286295 -0.07509599
-0.108164765 0.05593745 0.43680635 -0.039426684 0.5876585 0.082384266 0.73088473 0.15041341
-0.16652179 0.21445833 -0.080117136 0.57490444 0.13402718 -0.09045211 0.076978356 -0.6485797
0.06406617 -0.7574693 0.24176283 -0.26969355 0.6789033 0.103904516 -0.09447086 0.18810418
-0.08262589 0.5368567 0.6613333 0.09689001 0.1364468 0.19848126 0.054131802 -0.76623434

Bilstm.weight_hh_l0 f4 [80, 20]
00000000: b454 b0bd c2bc 8d3e 07c9 6b3e 19c5 a6be
00000010: 76db 2cbe 03a8 f7b8 5dca 51be af17 1a3e
00000020: a1df e4bd 8385 b8be c65e 613e ebd3 4abf
00000030: 8d96 2ebf 95ad 2ebd 7439 a03e 5a07 a93e
00000040: 2578 4cbe 4d4b 87bd 8fcd 133e 9e93 58bf
00000050: 0016 82be 1ab3 513e b77a ee3d 74dc 17bf
00000060: bf98 6abe 598e 0b3f dc5e 13bf 35dd 64bc
00000070: 227a afbe e9ae af3e b59d 093f a3a2 ddbc
00000080: 532f f83d aa6d f7be 7fc8 fd3e 17b7 203e
00000090: 127c a3be 186d 3a3f f848 f23e c04d 6c3e
000000a0: 71c8 69bc 2785 0fbe 48b8 e53d a741 34be
000000b0: 6216 66be 00a7 38bd 6423 c9bd 2672 323d
000000c0: 4b12 f7bd 821d abbe 3bae 893e 4e6c 18bf
000000d0: 470b 3dbf f2ae 213d f5ae b83d 5566 583e
000000e0: 0165 0f3e 6b64 b73e 5b59 e43c 4c4c 68be
000000f0: f24b 24be f9c8 2e3e 6c74 d43e 78a7 27be
00000100: 8c36 aabe 3565 a13e eb95 123f e4a7 90be
00000110: 16ed 7abe e3e0 07be 698b 243e d622 143e
00000120: a504 6ebe 427e f7bd c7ca 88bd 9724 49be
00000130: 8b8f 423d 57b2 cdbc 451a 3c3e 5834 b93e
00000140: cf31 773d 5ad4 1ebd d97f 24be 9ace 84be
00000150: f1c0 6f3e ad75 fa3b 2964 273d 20dc 1abc
00000160: 32f4 5f3d 8db2 77be c6ec 7dbd 5687 83bd
00000170: 421f 5bbe c0d6 7bbe b8ae 823d fe3c 993c
00000180: 2930 46be 5136 903e dfd7 ae3d fb45 6ebd
00000190: 79a6 81bd deb0 c13e 6256 9f3e 4597 0dbe
000001a0: c463 d1bd 0b03 a7be 2de9 ef39 3d5f 9abe
000001b0: fb17 53be 5c6f b3be 5787 373e 1de8 113f
000001c0: 951f 91be 7a1e 07bf 0af8 983d ecf3 923d
000001d0: f098 9bbd 6bf6 92bd c785 4e3e 0310 d83e
000001e0: 9f80 7abc 74ff 1b3f 045a 523e 7019 01bf
000001f0: 2487 48be 5291 123f 0562 23bf 1e89 0fbe
00000200: 9d43 c0bc db33 31bd a344 993e 4195 8d3e
00000210: df79 2cbe d091 1ebe d954 173f 62d0 2abd
00000220: acc9 5ebe 12ab af3e 70b6 f53e b183 143a
00000230: 3f85 93bd 3895 f13c ccae 063f 0610 34be
00000240: 4f0d fa3c 5a30 29be f951 6d3e 7b7b 213f
00000250: 5e33 9b3e a8f2 b3be 97ba aabe 1cc1 8c3e
00000260: 9bc3 fbba e70b 82be 4afa ef3d 31ad f7bc
00000270: 1b5f 54bd 917c 613d b9a9 4e3d 5cb3 633d
00000280: e949 68be c9c3 203e c98e e83e 96e0 9dbe
00000290: a99d 2c3f e54f e2be 391c d5bd 7fb4 023d
000002a0: 6323 243e d82b 75be dd6d 28bf b1e7 353e
000002b0: e080 233f df79 c7be 991c a93e 357c 00bf
000002c0: 0e12 48be dc13 8c3e e453 953e 2ec4 a3be
000002d0: 85a5 a63c 386a ad3d 605a b83d f43d c1bd
000002e0: 95ec eb3e 76ba edbc 6c6a d4be 8fb0 263e
000002f0: cb18 363d 2cbc 03bc 5784 90bd 7657 023d
00000300: 67cf aa3e 348f cabd 8382 2cbd bf9c b7be
00000310: 3e8d 843e a592 d13d 334f 77bd 2f57 8c3e
00000320: 1c35 88be 0224 57be 476b 27bd 6233 b8be
00000330: 46b6 de3d 6d33 c33e 414f 2ebe 6123 b5be
00000340: 7809 173f a070 f5bc 5f2c 9dbe 2974 78bf
00000350: 2a98 1b3f 3f1e ca3d c76d 293f d0fc e4bb
00000360: c274 29bf 31b6 6f3e c7e5 bfbe 0218 2bbf
00000370: e872 673e 449f 1e3f 6ec6 e23d 375c b1be
00000380: 9f95 563e b2aa 2e3f 6e74 1ec0 f66a 883d
00000390: 8462 1abe f956 723e 3bc1 703f 39c7 30bf
000003a0: 6153 da3e b04a 923e 388b 54bd ce2c 8b3e
000003b0: 6962 b9be a64e a73f 1e4b d6be d322 05bf
000003c0: 3e78 1bbd edac 413e 32af 103d 6e24 90bd
000003d0: 71a4 b43e 17ea 8c3c 9b67 afbd b524 9bbe
000003e0: 5870 603e a032 e5be 9751 303d f2a4 0abf
000003f0: fadd 763e b87e 893e 2fef 143e 98b3 a63d
-0.08609906 0.27683073 0.23025905 -0.3257225 -0.16880593 -0.000118091724 -0.20487352 0.15048097
-0.11175466 -0.3603936 0.2200881 -0.7922961 -0.6819847 -0.04264601 0.31293833 0.3301342
-0.19967707 -0.06606159 0.14433883 -0.84600246 -0.2540741 0.20478478 0.116445 -0.5932076
-0.2290983 0.5451408 -0.5756662 -0.0139687555 -0.34272867 0.34313133 0.53756267 -0.02705509
0.121184014 -0.48325855 0.4956703 0.15694843 -0.31930596 0.72822714 0.47321296 0.23076534
-0.01426898 -0.14015637 0.112167895 -0.1760317 -0.22469476 -0.04508114 -0.09821203 0.04356589
-0.12064036 -0.3342095 0.2689074 -0.5954026 -0.7384533 0.03947348 0.090177454 0.21132787
0.14003374 0.358188 0.02787464 -0.22685355 -0.16044596 0.17068852 0.41495073 -0.16372478
-0.3324474 0.31522527 0.57260007 -0.2825309 -0.24504504 -0.13269381 0.16068806 0.14466414
-0.23243959 -0.12084629 -0.06679302 -0.19642864 0.047500174 -0.025109453 0.18369396 0.36172748
0.060350236 -0.038776733 -0.16064395 -0.25938874 0.23413445 0.0076434226 0.040867005 -0.009451896
0.054676242 -0.24189205 -0.061993383 -0.06422298 -0.21398643 -0.2459364 0.06380981 0.018705841
-0.19354309 0.2816644 0.08537268 -0.058172207 -0.0633058 0.3783025 0.31120592 -0.13827236
-0.10224107 -0.3261951 0.00045759362 -0.30150786 -0.20614617 -0.35045898 0.17922722 0.569948
-0.28344408 -0.5278088 0.07469185 0.07175431 -0.0759753 -0.07175907 0.2016822 0.42199716
-0.015289455 0.60936666 0.2054215 -0.5042944 -0.19582802 0.5725299 -0.6382144 -0.1401715
-0.02346974 -0.043262344 0.29935178 0.27652934 -0.16843365 -0.1548531 0.5911384 -0.041702636
-0.21756619 0.34310204 0.4799075 0.00056653755 -0.07203149 0.029490098 0.5261047 -0.17584237
0.030523924 -0.16522351 0.23175801 0.6307904 0.30312628 -0.3514607 -0.33345482 0.2749108
-0.0019208075 -0.25399706 0.11717661 -0.030233951 -0.051848512 0.055050436 0.05045483 0.055590972
-0.22684444 0.15699686 0.45421436 -0.30835408 0.6742807 -0.4420158 -0.10405774 0.031910416
0.16029124 -0.23942506 -0.6579264 0.17764165 0.6386852 -0.38960168 0.3302963 -0.50189525
-0.19538137 0.27358902 0.29165566 -0.3198561 0.020342598 0.08467525 0.09001613 -0.09435645
0.46078935 -0.029019576 -0.41487443 0.1627829 0.04445724 -0.008040469 -0.07056492 0.03182169
0.3336136 -0.09890595 -0.042116653 -0.35861775 0.2588901 0.10233048 -0.060378265 0.27410266
-0.2660302 -0.2100983 -0.040873792 -0.35976702 0.1087461 0.38125172 -0.1702242 -0.35378554
0.58998823 -0.02996093 -0.30697915 -0.97052246 0.6077906 0.0986905 0.6618313 -0.0069881454
-0.66193783 0.23409344 -0.37479994 -0.6683351 0.22602427 0.6196177 0.11073004 -0.34640667
0.20955513 0.6822921 -2.4758563 0.06661026 -0.15076643 0.2366599 0.94044846 -0.6905399
0.42641738 0.28572607 -0.05189058 0.2718262 -0.36207893 1.3070877 -0.41854185 -0.5200626
-0.03795647 0.18913622 0.03532333 -0.070381984 0.3528171 0.017201466 -0.08564683 -0.30301443
0.21917856 -0.44765186 0.04304656 -0.54157937 0.24108115 0.2685449 0.14544366 0.081397235

Bilstm.bias_ih_l0 f4 [80]
00000000: 2c34 9d3e b9f0 103e a630 09be b649 c03e
00000010: a984 9ebd 5b52 f43e 51aa fb3e f16d 1c3f
00000020: 4552 61bd dd6d 143e c080 123f 32e8 2dbf
00000030: 3d7f ddbe 43ea 163d 36c0 133f 4d9b 773d
00000040: f89f 66be 0f01 cb3d cf71 563b 7c09 293e
00000050: a9cf dc3e bc2b 8a3e 1da1 973e 0ff2 a73e
00000060: fc8a 813e c86a 633c 1bf5 b4be 5f29 8b3e
00000070: 6b50 463e f493 933e a3b7 c13e bc70 71be
00000080: b030 c53e efab c6bc 3eb2 e43c ac76 ddbd
00000090: 277b 3a3d 8fc7 1bbe d2d1 87be e604 b6bc
000000a0: 6499 6a3c a3eb 3cbd f5c0 793d 6820 14be
000000b0: 05c5 5ebd 35c0 c1bd 05c4 bd3d 9891 d53d
000000c0: 6ab8 18be 1f78 4dbe e9bf a2bb 9786 2cbf
000000d0: d225 b53d 9484 f0bd eefa 84bd af8d c3bd
000000e0: 458b 043d f0c2 c6bd 1015 d63c 39a9 01bf
000000f0: 8e90 ed3e 4363 d0bd d00a bc3e 8796 933e
00000100: 86cd a9be 85bc 5ebd 2c84 9dbd f0d8 103f
00000110: 3626 a63e 0953 f23e 047e 6e3d ad29 33bf
00000120: c002 4bbf f17d 2ebf 17c9 67bc e5a7 493e
00000130: 8c3e 413f c77d 043e 491a 823e 8655 34bf
0.30703866 0.14154328 -0.13397464 0.37556237 -0.07740147 0.47719082 0.4915338 0.6110526
-0.0550101 0.14495035 0.57227707 -0.67932427 -0.43261138 0.036844503 0.57715166 0.06045084
-0.2252196 0.09912311 0.0032721644 0.16507524 0.43127182 0.26986492 0.29615107 0.32801864
0.2530135 0.013880439 -0.3534325 0.2718 0.19366615 0.28823817 0.37835416 -0.23578161
0.38513708 -0.024251906 0.027917024 -0.108136505 0.045527603 -0.15212844 -0.26527268 -0.022219133
0.014318798 -0.04612316 0.060975034 -0.14465487 -0.05438711 -0.09460489 0.092659034 0.104281604
-0.14914098 -0.20065354 -0.004966725 -0.6739287 0.08845104 -0.11744037 -0.064931735 -0.095485084
0.03235938 -0.0970515 0.02613309 -0.5064884 0.4639935 -0.10175183 0.36727 0.2882578
-0.33164614 -0.054379005 -0.076912254 0.5658102 0.32451028 0.47328976 0.058225647 -0.6998547
-0.7930107 -0.6816092 -0.014147065 0.19692953 0.75486064 0.12938605 0.2541068 -0.70443

Bilstm.bias_hh_l0 f4 [80]
00000000: 03e2 a03e 8bc0 363e 78ca f5bd e5d2 2e3f
00000010: f4ac 513c 66b7 303e 9755 6d3e 2be3 413f
00000020: 5864 853e 18d7 b1bd d962 e43e e42c fcbe
00000030: c770 22bf 3fde 0e3e 9829 c13e e72c a4bd
00000040: 1c6f d93c 30f4 8e3e 84e8 51be ffaa 28be
00000050: 6c76 093d 2a29 593d b6f0 1a3e 392e 7c3c
00000060: b531 403e 10b3 303e a88c b1be 42b1 d03d
00000070: b65b 663d 2f85 21bb c1cf f93e 7371 c7bd
00000080: 7a59 4a3e a720 cf3d 5471 643e aadb 2c3d
00000090: ee2b 8c3e 9ed0 083e fa98 543c 2110 a23b
000000a0: 5d85 8cbe 58ad 993e 49a2 943d cbe4 f73b
000000b0: 9a10 f93d ef92 65be 41fa 0fbe 45c9 713e
000000c0: b348 fd3d a372 4cbe 8cbf 87be da8b f0be
000000d0: 3311 943d 7686 0bbe b35b a9be 78a5 d43d
000000e0: 54c8 7cbe 7623 3ebe 46ff 9f3d a023 80be
000000f0: 8c51 c33e f698 d7bd 2b9e 043e eac7 283e
00000100: e6c7 5c3d 707f e43b 5f15 5e3e 5973 093e
00000110: 7a8d 613e 9233 333f fb10 12be f49b 2ebf
00000120: b939 49bf f213 01bf efae a83e 2a06 a93d
00000130: 5847 da3e 18c0 17be ea57 4ebc 4005 b0be
0.31422433 0.17846887 -0.120015085 0.6829055 0.012797583 0.17257461 0.23177181 0.75737256
0.2605312 -0.08683604 0.44606665 -0.49253 -0.63453335 0.13951968 0.37727046 -0.08016377
0.026542239 0.27920675 -0.20498854 -0.1647148 0.0335602 0.053017773 0.15130886 0.01539188
0.18768962 0.17255807 -0.34677625 0.10190059 0.056239806 -0.0024646034 0.48791316 -0.097384356
0.19760695 0.1011365 0.22308856 0.042201675 0.27377266 0.13360831 0.012975926 0.0049457704
-0.27445498 0.30015063 0.07257516 0.007565116 0.121613696 -0.22419332 -0.14060308 0.23611934
0.12367382 -0.19965605 -0.26513326 -0.46981698 0.07229843 -0.13625512 -0.33077773 0.10383123
-0.24685794 -0.18568215 0.078123614 -0.2502718 0.38148153 -0.10527222 0.12950961 0.16482511
0.053901576 0.0069731995 0.2168784 0.13422908 0.22026625 0.70000565 -0.1426429 -0.68206716
-0.786037 -0.5042106 0.32945964 0.08253129 0.42632556 -0.14819372 -0.0125942025 -0.34379005

Bilstm.weight_ih_l0_reverse f4 [80, 2]
00000000: 55c8 d33e c961 40bd b139 e73e e34e 2dbe
00000010: 480a 003f 1aa0 073d 49b9 8abd 8748 5d3f
00000020: e3e9 3c3f 690c 06be 222a 8cbd 0b60 553f
00000030: c721 233f 604e b33d be0b ce3d 432a 0dbf
00000040: b6de 6c3d c3c8 dcbe 76de 453f 70ac 67be
00000050: 8164 7fbd 8abd f03e ef03 d63e b073 e9bd
00000060: 81be 773e 2c95 843e 9e0d ce3e c00d d53d
00000070: a57f 09be 6a7a 443f a630 1d3f 3570 0bbe
00000080: cb8a 1dbe 9814 133f f572 383f f9be 30be
00000090: 16ee 723f 302e 78bd 2d70 c83e 9095 51be
000000a0: 8974 d1bd 5ad6 b9be b9c1 293e d251 febc
000000b0: 8149 693e 6e91 32bd e6d0 a5be d4dd cabc
000000c0: 3d7f 03bf 0389 e43d ff7f 75be 03db f43d
000000d0: 1d94 c9bd 7fc7 e0bd 405a 273d 64d8 42bd
000000e0: aef0 a43e e040 963b 8a28 c83d 4e12 573d
000000f0: 2912 c6bd 4fda 9dbd e4b9 2e3e d5f9 313e
00000100: 8ee6 863f 69dc 5d3d b62e 883e aac9 67be
00000110: e1f5 9d3e 1eaf 93be c339 3c3e 1678 bebd
00000120: 0d08 3d3f df84 1b3e 1af0 c73d abf0 1e3e
00000130: 5f87 483e cebb 33be 4d65 f93e 5e1a bc3d
00000140: ed50 c5bd 9426 bbbd 3e3e 52be 55b4 3cbe
00000150: ca81 5abe 0fca b9bd fa9f 01bf b74b 033e
00000160: b69a e13e 1839 cc3d 8bf1 aebe 468a 423d
00000170: ca56 ca3e c3e1 9d3d 06bd 9fbd d46b f43e
00000180: ebad de3d 9b29 1dbf 8c65 0bbf d177 6a3d
00000190: 2657 483e e9fd a2bd 1049 573e 5181 a3bd
000001a0: ffc8 6d3f 1b21 743d aa84 483e 01a6 c1bd
000001b0: a30a e3be eb03 3d3e 09d4 9f3e cc44 15be
000001c0: 5c3e 243f 130d 963e c565 16bf ad75 743e
000001d0: 8c72 01bf 8e2f 1e3e 8f45 823e d492 433b
000001e0: 3912 8b3e 2050 b23e feef 8abd 9d45 5b3f
000001f0: 71d5 93bd 5c24 523f 542b d73e c491 b83d
00000200: df28 3c3f 422f d63e fd0a 023f 0479 073a
00000210: c4a4 8cbd f7d2 3a3f 2866 5e3e e7c4 e5be
00000220: 5dfe 8e3d bf6e 40bf fdf2 97bd 9d82 753f
00000230: 1cc2 bf3e 7860 103f 678b 90bd 3244 3c3f
00000240: 8660 90bd 4ec0 e03e 2c13 89bd 97ac 363f
00000250: c21b b63e 923b ae3e a4ea e73e c6eb 223e
00000260: 67c4 a43e 63a2 753e 6e03 cbbd 0e19 303f
00000270: 10a4 a3bd dc1e 693f 49ef 8abd 6453 1e3f
0.4136378 -0.046968255 0.45161203 -0.16924624 0.5001569 0.03311167 -0.067736216 0.8643879
0.7379438 -0.13090672 -0.06843974 0.83349675 0.63723415 0.08755183 0.100608334 -0.5514261
0.05782958 -0.4312192 0.77292573 -0.22624373 -0.062351707 0.47019607 0.41799876 -0.11399019
0.24193765 0.2589506 0.40244764 0.10403013 -0.13427599 0.7674929 0.61402357 -0.13617022
-0.15384977 0.574533 0.7205041 -0.1726035 0.9489454 -0.060590923 0.39148083 -0.2046721
-0.102273054 -0.3629635 0.16577806 -0.031044874 0.22781946 -0.043595724 -0.3238594 -0.024763979
-0.51366025 0.111589454 -0.23974608 0.11955836 -0.098427035 -0.10975551 0.040857553 -0.047569647
0.32214874 0.0045853704 0.09773357 0.05250769 -0.096714325 -0.07707655 0.17063099 0.1738046
1.053911 0.054165278 0.26598138 -0.22635522 0.30851653 -0.2884454 0.1838141 -0.09300248
0.7384041 0.15187405 0.097625926 0.15521495 0.1958289 -0.1755211 0.487101 0.09184717
-0.09634576 -0.091382176 -0.20531556 -0.18428166 -0.21338573 -0.09071743 -0.5063473 0.12821852
0.44063348 0.09971827 -0.34168658 0.04749515 0.3951934 0.07709076 -0.07799725 0.47738516
0.10873016 -0.6139161 -0.54451823 0.057243172 0.19564494 -0.07958586 0.21023965 -0.079836495
0.9288482 0.059601884 0.19581857 -0.09455491 -0.44344053 0.18458526 0.31216457 -0.14577025
0.6415765 0.2930685 -0.5874904 0.23873015 -0.5056541 0.15447828 0.25443694 0.0029842155
0.2716234 0.34826756 -0.06784056 0.85653096 -0.07218445 0.8208673 0.42025244 0.090121776
0.73499864 0.4183293 0.50798017 0.0005167874 -0.06867364 0.72978157 0.21718657 -0.44876787
0.0698211 -0.75168985 -0.07419393 0.95902425 0.3745278 0.563972 -0.07057839 0.7354156
-0.070496604 0.43896717 -0.0669311 0.713571 0.35568053 0.34029824 0.45296204 0.15910253
0.32181093 0.23987727 -0.099127635 0.6878823 -0.07990277 0.9106271 -0.06783921 0.61845994

Bilstm.weight_hh_l0_reverse f4 [80, 20]
00000000: d113 943e 4e94 623d f467 a13e b139 01be
00000010: 4a6b 76be 566e e03d b2fb acbe 787d ad3d
00000020: dc85 763e 5332 dc3e d8fb abbe fc5f db3c
00000030: f948 e5bd fd87 9dbc 9134 09bd 1947 1abe
00000040: 4245 58be 0f73 063f 3a82 e4bb 5fd9 bebe
00000050: 4642 71be 946f 5b3d ce3b d4bc a74d 6dbe
00000060: 9bbf d63e 9d8b a7bd 036a 4ebe 166b 1e3e
00000070: 5aa8 c2be 5a43 95bd 4467 d4bb 2ff6 ab3b
00000080: 1c58 16be 251b ecbd d4a4 493e 3182 0d3d
00000090: 3a65 acbd 149e e8be d301 5e3e e22f cabd
000000a0: 8320 bcbe 5cca 34bd a248 343e ce20 07be
000000b0: 2ed8 513f 60fd 9ebe 3314 a0bd 9b84 4ebd
000000c0: c802 da3d 4492 4abe d930 f93d fb41 09be
000000d0: f355 c8be 305c 6d3e 5626 483e 01ad b6bd
000000e0: dd5f 70bd 3bc7 e5be 3276 42bb 7552 1e3e
000000f0: 9981 ce3d 4ebd 7abd a953 c63c 42cd b2be
00000100: b833 213d 36d7 1bbe 23d1 34be 9029 39be
00000110: b5d8 363e 471e 843e aaf3 19be 0641 a5bd
00000120: f824 b2bc 2b40 853e bd33 303f feb4 aa3d
00000130: 02c0 84be 0408 e03e 4583 f63e 2beb eabd
00000140: 5898 2abe 7237 78bc e025 51be 82ee 98be
00000150: 843e 0cbf 43e4 063d e386 68bd a5db 273e
00000160: bae4 aebe 62a9 1b3f 0d6b c5be 0260 053e
00000170: 1048 79bd 9ea2 f6bd a616 523c 27a2 40be
00000180: 96e5 3abe 4196 bb3e 251d a13e 9148 90be
00000190: 8a4f 41be 11e4 613e 53f8 6c3d c83c cebe
000001a0: c123 403d d5a2 3fbe afb3 76be 664f 89be
000001b0: 01b8 a93c 6526 ccbd 4c90 13be 3ff9 e8bd
000001c0: 8221 a9bd e68d 873d 7cef b33e 4910 433c
000001d0: d05e 26bf 5d7e 24bd 9c8a 1e3e 9129 a3bd
000001e0: 11d0 ae3d c620 cabb dfbd cf3d ad37 97be
000001f0: bcb3 c43e c14a a2be fada 863e 02bc a6bd
00000200: a9c8 ebbd 367d dbbc e82e aebd e790 593e
00000210: 7ed5 a03e 72cf a93e 6a45 9cbc 82c8 d93d
00000220: 44b4 933c 6fd8 94be 3b13 313e 137c fd3c
00000230: 24b6 2cbe 48ee a33c f2d5 2d3e b1ef 4a3e
00000240: 48e6 0bbd 8541 eb3d daf0 5f3d 81dc 633f
00000250: d2ae 8dbe eb2e 343c 4dbe 803d d716 48be
00000260: a356 bdbe fb5a ffbd 8aab b9be b26f 1e3e
00000270: f0de d93d 3b32 a3be dcea 2b3d 49e0 053d
00000280: fd62 82bd d50f df3e a35d db3e ee73 a43e
00000290: 554e 9ebe dac7 2b3e 2d75 97be 1404 91be
000002a0: 10b8 c63e f9f8 e53d 7ae5 adbd 160c cebd
000002b0: 5432 90be d245 5fbd c9ad e23d 2aae dcbd
000002c0: 3272 4c3e 67a9 953e 460a b63e 740b 8abe
000002d0: ec7d dbbe be4c 9ebe bb02 8dbe e456 013d
000002e0: 5c59 a73e 3038 d23e 0504 a4be ace2 01be
000002f0: cc6d 3d3e f572 933e 5f2e 3f3e c0f3 83bd
00000300: 9e31 0d3e 37d3 b13e 5e45 d03d d394 3e3e
00000310: d4da 8ebd cd65 843d 21fc 9a3e 7eaf 1cbd
00000320: 331b e13d 9cde 313e 8d06 a53d c883 d93d
00000330: 6400 6fbe 38d8 b03c 7334 24bb adab 22be
00000340: b6f6 c6be 9938 623e 61ee 52be 50be e4bb
00000350: f0af f7bd 2f94 543e 3818 ccbe fe95 abbd
00000360: 8ecc 253e 9411 4b3e 996e 61bd 1707 633d
00000370: fff4 2bbe 5562 e1bd 0e6d c93d 2d6f 81bd
00000380: d24f a43e 8510 8b3d 9f8d 82be 814b 213e
00000390: ddb7 afbe 07b5 d63d df9b ca3d 93e5 be3c
000003a0: eb95 02be 45e1 f53c 0e43 ab3b 861a 063c
000003b0: 9f9a 253e 0f44 283e 4aa1 30be f9e6 d9bc
000003c0: f611 55bf faea 09bf 8664 4fbe a1f2 eebe
000003d0: f028 9b3e 7661 ecbe fffa 5a3e 5d92 493e
000003e0: 1062 0ebe 1de7 a73d 0166 ed3d 609f 283e
000003f0: b36e 583f ce27 0b3f 5fd9 91be e2ee e43e
0.2892137 0.055317216 0.31524622 -0.12619664 -0.24064365 0.10958545 -0.33785778 0.08471197
0.24074501 0.43007144 -0.3359058 0.026779167 -0.11195559 -0.019229883 -0.033497397 -0.15066184
-0.2112017 0.52519315 -0.006973532 -0.37275216 -0.23560438 0.053573206 -0.025907423 -0.23174153
0.41943058 -0.08180926 -0.20157628 0.15470538 -0.38019067 -0.07288237 -0.006482037 0.005247853
-0.14682049 -0.11528615 0.19691783 0.03454799 -0.08417745 -0.45433104 0.21680383 -0.09872414
-0.36743554 -0.044138297 0.17605832 -0.13196108 0.8197049 -0.31052685 -0.07816353 -0.05041943
0.10645062 -0.19782358 0.1216752 -0.13404076 -0.39128074 0.23179698 0.19545874 -0.089197166
-0.058685172 -0.44878563 -0.00296725 0.15461142 0.100833125 -0.06121569 0.024209814 -0.34922224
0.039355963 -0.15218815 -0.17657904 -0.18082261 0.17856105 0.2580435 -0.15034357 -0.08069043
-0.021746144 0.2602552 0.68828946 0.08335303 -0.2592774 0.43756115 0.48147026 -0.11470636
-0.16659677 -0.015149938 -0.20424604 -0.29869467 -0.5478289 0.03293253 -0.056769263 0.16392381
-0.3415888 0.6080533 -0.38558236 0.13024905 -0.06085974 -0.120427355 0.012822783 -0.18811856
-0.18251643 0.36638072 0.31467548 -0.28180364 -0.18877998 0.22059657 0.057854008 -0.40280747
0.046909098 -0.18714459 -0.24091981 -0.2681839 0.020717623 -0.09968261 -0.14410514 -0.11375665
-0.08258344 0.06618862 0.3514365 0.011905738 -0.6498842 -0.040159572 0.15482563 -0.079669125
0.08535779 -0.0061684577 0.10143637 -0.29534665 0.38418376 -0.31697658 0.2633894 -0.081413284
-0.11512882 -0.026793104 -0.085050404 0.21246682 0.31412882 0.3316608 -0.019076068 0.10633947
0.018030293 -0.29071376 0.17292492 0.030942952 -0.16866356 0.020011082 0.16976145 0.19817998
-0.03415516 0.11487106 0.054673053 0.8900834 -0.2767244 0.010997514 0.06286297 -0.19539963
-0.3698016 -0.12468525 -0.36263686 0.15472296 0.10638225 -0.3187426 0.041972026 0.032684598
-0.06366537 0.43566766 0.42844877 0.32119697 -0.30919138 0.16775456 -0.29581586 -0.28323424
0.38812304 0.112291284 -0.08491035 -0.10060899 -0.28163397 -0.054509945 0.11068303 -0.10775407
0.19965437 0.29230806 0.35554713 -0.26961863 -0.42869508 -0.30917925 -0.27541146 0.031577006
0.32685363 0.41058493 -0.32034317 -0.12684125 0.18498915 0.28798643 0.18670033 -0.06442976
0.13788459 0.34731457 0.10169481 0.1861146 -0.06975332 0.064647295 0.30270484 -0.0382533
0.10991516 0.17370075 0.0805789 0.106208384 -0.23339993 0.021587476 -0.0025055676 -0.15885802
-0.388601 0.22091903 -0.20598747 -0.006980695 -0.12094104 0.20759653 -0.39862227 -0.08378218
0.16191313 0.19830924 -0.055037115 0.055426683 -0.16792677 -0.110050835 0.09835254 -0.06320033
0.32092148 0.0679026 -0.25498673 0.15751459 -0.34319964 0.10483747 0.09893011 0.023302829
-0.12752502 0.030014643 0.0052264994 0.008185035 0.16172265 0.16432212 -0.17249027 -0.026599394
-0.8323053 -0.5387417 -0.2025319 -0.46669486 0.3030467 -0.46168107 0.2138481 0.1968474
-0.13904595 0.08198378 0.11591721 0.16467047 0.84543914 0.5435761 -0.28486153 0.44713503

Bilstm.bias_ih_l0_reverse f4 [80]
00000000: aa43 383e 7a15 1ebd 944c 31be 6375 083f
00000010: 8922 25be a319 343f f755 7e3c 490a 57be
00000020: 6dc1 77be 8b50 393e 1753 833e 1854 543e
00000030: 6dd7 f83e 2596 9b3e bb37 983e e4a9 32be
00000040: a230 0a3f 0551 2dbd 1737 513e b6eb 2abe
00000050: 3e4e 9cbe 0818 c63d 401b 94bd a5fb 113b
00000060: f5a9 2abe b0b9 363e bab8 c63d edcd 463e
00000070: de90 c4bd e4eb a23d 7cfd 20be a68e 9e3e
00000080: 78c8 3a3e e81f df3c 8967 8abe a451 9bbd
00000090: 683d 793e 1dbd f93b ed55 1ebe 0d62 a5bd
000000a0: 8b51 283e 5890 36be 473e 9e3d 5792 15be
000000b0: 96d0 9f3b e738 54be 6aba 133e df3c f73e
000000c0: 8d07 dabe 952b 283e 52ba 243d 9dcc 863e
000000d0: 39d9 9c3e dec2 873d c866 f5bb fe42 c339
000000e0: 1286 f5bd 4794 3b3d 1914 5d3e 186a 2c3e
000000f0: 1664 bd3e 5df8 be3e a5d9 e13e a899 053e
00000100: 2378 9c3e a1fa 893b f2d0 343f 6307 2bbe
00000110: d055 02bf 1e87 483f ca1d 093f 47f4 833e
00000120: 805c 133f dd40 f83e ce79 e93d 7268 fabc
00000130: 9da0 513e a0fc 0b3f c403 143f 46ea 0b3f
0.17994562 -0.0385947 -0.17314368 0.5330412 -0.16126455 0.7035162 0.015523425 -0.21000017
-0.2419488 0.18097131 0.2564933 0.20735204 0.48601857 0.3038799 0.2973002 -0.1744762
0.5398046 -0.042313594 0.20431171 -0.16691479 -0.30528444 0.09672552 -0.0723176 0.0022275236
-0.16666396 0.17844272 0.097032025 0.19414492 -0.09597944 0.07955149 -0.15721697 0.30968207
0.18240535 0.027236894 -0.27032116 -0.07583931 0.24339831 0.007621421 -0.15462466 -0.08075342
0.16437356 -0.178285 0.07726722 -0.14606605 0.0048771603 -0.20724832 0.1442658 0.48288628
-0.42583886 0.16422875 0.04021675 0.26327983 0.30634478 0.06628965 -0.007489059 0.0003724321
-0.119884625 0.045795705 0.21589698 0.16837347 0.36990422 0.3729886 0.44111362 0.13046896
0.30560407 0.0042107855 0.70631325 -0.16702037 -0.5091219 0.7833117 0.5356108 0.25772306
0.5756302 0.48486987 0.114001855 -0.030567382 0.20471425 0.5468235 0.57818246 0.5465435

Bilstm.bias_hh_l0_reverse f4 [80]
00000000: 3ad7 a23d 9197 79be ddda c4bd d3a3 313f
00000010: 9573 f3bd a7dd d13e ab12 78be 67ff 90be
00000020: 0d87 e4be fabb 613d d85b d23e 7e65 edbd
00000030: 6d96 d53d d633 cb3e c0b8 e73e 8f9d 3b3e
00000040: 502a 183f 1f9e 1fbe 05c5 7c3d 6d90 77be
00000050: c108 19be ce24 2abe 795b dbbd dc70 c73d
00000060: e4e1 683d 7a27 69be dab8 b1bd ad93 6cbd
00000070: 2d50 72bd c4b2 ef3d 34e1 d6ba efc4 363e
00000080: 9656 eebd e08a 63be ec20 e7bd e368 7dbc
00000090: a19a 753e f11d c03c 7f81 523d 7857 91be
000000a0: f20d afbd 81ee c33d 6c18 2a3d 6df5 19be
000000b0: 1002 47be 7534 903d e112 edbd 4ff2 153f
000000c0: 74a3 19be 9203 643d d6ab d3bc 7179 683e
000000d0: 69b7 443e 8a60 283d ad58 49be 38ee fb3d
000000e0: c611 6f3e c5cd 9fbc cbbe efbd 3b53 71bd
000000f0: 142a bf3e 6466 db3e 3e4a d03e b5d7 07be
00000100: 4200 2e3e 9481 9ebb 5692 293f fa21 9dbe
00000110: 872c 2abf c37d 2e3f cc0d 093f 272b b63e
00000120: ea12 0a3f 4f7b 1f3f d2b4 6e3e 9147 3b3e
00000130: 85fd 08bc 5f4d 5f3f 6b4d 2a3f afaa 113f
0.079512075 -0.24374224 -0.09612057 0.693906 -0.1188728 0.4098942 -0.24225871 -0.28319857
-0.44634286 0.05511091 0.41085696 -0.11591624 0.10429082 0.39687985 0.4525814 0.18321823
0.59439564 -0.15587662 0.06171133 -0.24176188 -0.14944746 -0.16615602 -0.107108064 0.09738323
0.05685605 -0.22768965 -0.08677836 -0.057758022 -0.059158493 0.11704019 -0.001639402 0.17848562
-0.11637609 -0.22220945 -0.11285576 -0.0154669015 0.23984767 0.023451777 0.05139303 -0.28387046
-0.08547582 0.095669754 0.041527197 -0.15035029 -0.1943438 0.070412554 -0.115758665 0.5857286
-0.15003759 0.055667467 -0.025838774 0.22702576 0.1921059 0.04110769 -0.19662733 0.12301296
0.23346624 -0.019507298 -0.11706313 -0.058917265 0.3733679 0.42851555 0.40681642 -0.1326588
0.16992286 -0.0048372243 0.66238916 -0.30689985 -0.66474193 0.6816065 0.5353668 0.35579798
0.5393511 0.6229753 0.23311165 0.18289019 -0.008361225 0.87227434 0.6652438 0.5690107

lstm.weight_ih_l0 f4 [80, 40]
00000000: a080 babe 975f a3bd 3728 433f 5ada 493e
00000010: f557 ddbd 83e9 f7be a061 66bd af64 2c3e
00000020: 08d6 333e b034 07bf 4ebe ccbe 15a5 033e
00000030: 6774 a6be 7a41 6bbe 53da 683d b5e9 39be
00000040: 0f01 e5bd 7b94 033e 81cb aa3e 1a09 893e
00000050: 7678 35be cf01 93bd b12c ab3d 7aab 093d
00000060: 8795 173e 4c7c fa3d 9d97 a5bc 20f4 f5be
00000070: dd26 113f c294 793e dbbd 243d 3b82 01bd
00000080: e790 da3d f987 2e3c ab51 eebe 934a e73e
00000090: 22d7 b63e ce31 0e3e 9aac 313e 3813 0f3d
000000a0: f0dc 09bd 2221 d13e c721 bb3e 5d80 19bf
000000b0: 4fe6 9fbe 3335 973e fc57 a8be 2d8f fbbd
000000c0: 47ba c43e 88e4 1e3e 8cf9 bfba 6839 463d
000000d0: 0d21 9ebe 912a 88be fdce bd3e 0a53 75be
000000e0: d34f eebe 3e25 e73e 8e72 7d3e 1653 7c3d
000000f0: d01e 31be 7196 353c 367d 0bbd bd2f afbe
00000100: c283 393e e1a0 6fbe 6f01 6a3d 142e c1bd
00000110: fd23 7d3e 0ae5 e4bd f2cb 9ebc f5cc f43d
00000120: e8ce b63a 7721 413e 3344 ee3e 46ce 613e
00000130: b7ef a7be 9864 513c a3fa e23d 8da2 703d
00000140: 99c7 d93e 78da 0e3f a118 cdbe 0bed 48bf
00000150: 3ae4 b73d 5dd6 3a3f 5b9b 06bd f169 85be
00000160: 581b a33f cc41 313e 5457 d83d d88b a3bd
00000170: c325 463d 4f9a 38bd d7f2 333f ab18 f33e
00000180: 4963 8fbf a310 253f d554 533e 264d 17bb
00000190: 5185 f23d 4bb9 86be cf79 1ebf b68f 1bbf
000001a0: 16fc 93bc 4c34 3fbf 089b 483f fc43 c33e
000001b0: 79a9 91be c6f2 a8be 935e 253f 37bf e73e
000001c0: 13fe 8b3f 566a 063f 9533 a23e e9f2 a1bd
000001d0: e71c 61bc fdd4 02bf 0c15 a3be ef14 313f
000001e0: 58c7 c5be be2b 3d3f 01f3 643e 0a14 b1be
000001f0: a00f cebe d71e 223f dae8 79bf 0c75 6f3e
00000200: 52ff b1be b7aa 733e bbf2 4d3f feb1 c03d
00000210: 6652 2fbe 8798 0ebc 021c eb3e 895f b33e
00000220: 3c99 30be 9324 573f f747 eb3d 9376 853e
00000230: 0e97 bfbd b72e 0cbe d86c 58bc 4277 e2be
00000240: f105 b03e 9068 e5be 2fc3 d2bd 63f4 b73e
00000250: ea66 80bd 7556 1a3e 3acf e13e 9c41 823e
00000260: fe28 123f cfc2 683e dd6f 5ebf d466 7b3e
00000270: 6f74 1a3f 7fd7 01be 6702 02be dd6e bd3e
00000280: 8885 643e 2857 903e 9adc 9abe c92f f3bd
00000290: 0af3 56bd 9f4e 013d ad08 86be 311c d0bd
000002a0: 98ed 1a3f 8d99 b5be 0f07 21be b2ef 8d3e
000002b0: bfbe fbbd fd7b 29bf 0a09 383d e8d6 013e
000002c0: bf8e 13bf ca21 063e 3793 be3e 2fdf 1f3d
000002d0: a5db bfbd 1ea2 89bd 175a f03e 11bc 4a3e
000002e0: df34 c33d 642a c13e f91c 22be e06e a5be
000002f0: e6f8 e73c fa4a d13e 6a5f bc3c 9e26 0bbd
00000300: ea28 a63e 8754 4dbe 85ad fdbe 2805 863e
00000310: c1b6 023d b72d 583e 8ccb 463e b425 633d
00000320: c1b0 403e 89b7 f53e d9ed 7e3e 9102 7dbe
00000330: d6a6 323d 9b89 03bf 9cb3 fb3d 20d8 ec3e
00000340: f2c5 ca3e 927d 31bf c949 963d 26bd cbbe
00000350: d057 58bc 8bab 44bd 0005 f53e 13d8 1b3d
00000360: 0508 d53d 1e8e 383f 03ff aa3e 5a06 1ebe
00000370: 17b2 5cbe 18f2 803e e843 a13e d089 b53e
00000380: a878 2f3e 2ce8 9f3e 4557 d2be d19b 843d
00000390: 631b c43d a7fc f53d fc90 e7be 91c5 53be
000003a0: 8e36 16bf 8ecd 6ebb ffe6 52be f4d3 bfbc
000003b0: 3017 c3bc 0b71 fc3e 836a eb3e 4747 b2be
000003c0: 3315 683c 605e 623d b38f c7be 5f72 1c3e
000003d0: e320 973c b685 883c 1a95 313f fc56 d23e
000003e0: 3a8a 263f 3a22 e53e 31b5 023f 3b02 0e3e
000003f0: 0468 253e 7f58 493e 723b 38bd ed58 0c3f
-0.36426258 -0.07977217 0.7623324 0.19712201 -0.10807792 -0.48420343 -0.056245446 0.16835283
0.17562115 -0.5281477 -0.3998894 0.12855943 -0.32510683 -0.22974196 0.056848835 -0.18155558
-0.111818425 0.1284961 0.33358386 0.26764756 -0.17721733 -0.07178079 0.083581336 0.0336108
0.14803134 0.12230739 -0.020213896 -0.48037815 0.56699926 0.24373153 0.040220123 -0.031618338
0.10672169 0.010652536 -0.46546683 0.45174083 0.35711008 0.13886186 0.17350999 0.034930438
-0.033657968 0.4084559 0.36549208 -0.5996149 -0.312304 0.29532775 -0.32879627 -0.12283168
0.38423368 0.15516865 -0.0014646514 0.04839459 -0.3088459 -0.26594976 0.37071982 -0.23957458
-0.46545276 0.451456 0.2475073 0.061602674 -0.1729691 0.011083231 -0.034054957 -0.3421611
0.18116668 -0.23401214 0.057130273 -0.09432617 0.2472076 -0.11176498 -0.019384358 0.11953155
0.0013947161 0.18860422 0.46536407 0.22051343 -0.32800075 0.012780331 0.110829614 0.05874877
0.42535093 0.55802107 -0.40057853 -0.784867 0.08979078 0.7298334 -0.032863002 -0.2605739
1.274272 0.17310256 0.105635315 -0.079856575 0.048375856 -0.045069035 0.7029242 0.47479758
-1.1202174 0.6447851 0.2063783 -0.0023086756 0.11841834 -0.26313242 -0.61904615 -0.6076616
-0.01806454 -0.74689174 0.7836156 0.38137805 -0.2844961 -0.3299772 0.64597434 0.45263073
1.0936912 0.52506006 0.3167998 -0.079076596 -0.013739801 -0.51106244 -0.31851995 0.6917257
-0.3862865 0.7389487 0.22358324 -0.345856 -0.40246296 0.6332831 -0.9762093 0.23384494
-0.34765106 0.23795591 0.804485 0.09408949 -0.17121276 -0.008703358 0.45919806 0.35033825
-0.17245954 0.8404018 0.114883356 0.26067027 -0.09354983 -0.13689695 -0.013209544 -0.44231611
0.34379533 -0.44806337 -0.102911346 0.3592864 -0.06269629 0.15072043 0.44103414 0.2544068
0.570938 0.22730564 -0.8688944 0.24550945 0.60333914 -0.12679861 -0.12696229 0.36998644
0.22316563 0.28191495 -0.3024643 -0.11874349 -0.052477874 0.03156912 -0.26178494 -0.10161627
0.6051879 -0.35468712 -0.15725349 0.27721936 -0.12292241 -0.66204816 0.044930495 0.12679636
-0.5763969 0.13098827 0.3722169 0.039031204 -0.09368066 -0.067203745 0.46943733 0.19798304
0.09531569 0.37727654 -0.15831365 -0.32311153 0.028316926 0.40877515 0.022994716 -0.033972375
0.3245309 -0.20051776 -0.49546447 0.2617581 0.03191257 0.21111189 0.19413584 0.05545588
0.18817426 0.4799159 0.24895419 -0.2470801 0.04361614 -0.51381844 0.12290117 0.4625864
0.39604145 -0.6933223 0.07338292 -0.39792746 -0.01320453 -0.04801516 0.47855377 0.03804786
0.1040192 0.72091854 0.33397684 -0.1543211 -0.21552311 0.25184703 0.3149712 0.35456705
0.1713587 0.3123182 -0.41082206 0.06475032 0.09575536 0.1201108 -0.45227802 -0.20680834
-0.58676994 -0.0036438438 -0.2059593 -0.023416497 -0.023814768 0.49304995 0.459797 -0.34820005
0.014165211 0.055265784 -0.3897682 0.15278004 0.018448299 0.01666532 0.69368136 0.4108199
0.65054667 0.44752675 0.51057726 0.13868038 0.1615296 0.19662665 -0.044978566 0.5482319

lstm.weight_hh_l0 f4 [80, 20]
00000000: a23b 0a3f 7221 34bc a9f9 803d ae8d 92be
00000010: 17f2 373e 8787 bc3e 40d1 b13e ad95 01bd
00000020: 6725 c2bd 179d 6b3e 7139 963e 6c3d ed3d
00000030: f475 07be 4fd2 cc3e f85c ffbd 64aa a43e
00000040: daa2 043f 904d 3c3e a55b 5f3e c688 fbbd
00000050: cb3e babe bf00 66bd 4273 913e e8cb 963e
00000060: 6ad3 2ebe 6607 9fbe 5ce1 8e3f e7ee d13d
00000070: b7a9 7f3e e357 95bd 4249 8bbd 09a1 54bf
00000080: 4868 7ebd addd c4bf dd1f aabe bb00 993e
00000090: 5e20 d9be b825 fabe c7b8 20bf d3cf 873f
000000a0: c16e 5abd 96a9 843d 535f f03e 8f39 173f
000000b0: 1dae 7abe 6005 243e 0bd9 2e3f 7a31 5e3e
000000c0: a3e6 393d 0e8c 163f a895 d4be f423 29bf
000000d0: 9149 0bbf e258 ac3e e610 f6be 7785 cc3d
000000e0: 3d66 0c3d a4bd b43e 0598 a73e c476 983d
000000f0: b142 9a3e 5275 15bf 8172 ad3e 485b b83e
00000100: cf98 d23e 0141 fd3a 8e17 c6bd ee7e ddbe
00000110: e5f7 febe 3fa4 7e3d 5443 23be 5b26 ba3e
00000120: 9cdf 14be 5adf b73e 5302 adbf 413f 8f3e
00000130: ebc7 f83c 6701 07bf c0bd d63e bc9c ddbe
00000140: 4815 523e e981 39be 3922 9c3e 539f dabd
00000150: 45f8 e8bd c358 a4bb 10f3 a33e c221 3ebe
00000160: 8304 1c3e 8117 ae3e aa07 0b3f 917f a63e
00000170: de5e 69be 0dd1 d93d 0335 e1be cc43 2b3f
00000180: b2a1 003f 6c38 cf3e c261 07be 087d 7abd
00000190: 221f 093f 65f5 9f3d 1e12 fb3e f526 04bf
000001a0: 6a32 ce3e 3373 853e 0b15 053f f790 0abe
000001b0: 1fb6 0abf 676e 493e 7470 d73e 7c74 c63d
000001c0: 260f 62bf e447 003e 5cac 453e 93ae 0d3f
000001d0: 6bd4 4a3f d90c 913e a25b ab3e 41af 7a3e
000001e0: 9fb3 e93e 86c4 8abe 9333 bb3e 679c 243e
000001f0: 1411 edbd 18b5 1c3e 4977 453e 5eb8 03be
00000200: 1401 1b3e c31d bd3e 8342 393e ef3b 8d3e
00000210: 1102 05bf 9e0e e6bd 10e2 c2be d2b2 f93e
00000220: 97a2 94be e331 8b3d c3ac bc3e 20bf 923d
00000230: 36ae 65be 78d6 a8bd d396 023f 7436 9f3e
00000240: 7ab4 b8bd 59c9 c6bd 2a79 253f e124 3d3d
00000250: 50d1 913e c574 cf3e 512f 013d f336 37bf
00000260: 59e6 bbbe 5be6 f6be c42a 03bf 379a 7c3e
00000270: e747 afbe 1083 d1be 0d7e 4ebe 1efb b13f
00000280: 59ed 693e d643 333e e1a3 0f3f 745f 49be
00000290: 7979 6c3e 5670 e2bd 05f0 f43e c2c5 e33d
000002a0: 6529 99bd 91ec febb 6848 a83e 24c9 113f
000002b0: a676 d73c 8bbc 393e bc5e 253d 6726 533f
000002c0: 54a8 553e 9ddf 833d 363f c13d 6058 8abe
000002d0: 908e ee3d 6165 89be 8c71 8a3e 4cdd 383d
000002e0: f80d ba3e 6d92 6abf ba76 94be bd63 c6be
000002f0: 7968 74be ac68 76be 4948 373c 2bd6 e23d
00000300: 174c a6be 569d f03e ce8a bcbf 3708 293f
00000310: 20fc b8be c8ef 36be b7ed 303f 620c 57be
00000320: e404 603e 5b74 5cbe ce77 63be e430 8c3e
00000330: 2f6e d23d ecaf 4ebf 9f21 a2be 7b32 88be
00000340: 2158 97be 6c9f 8c3e 20d9 1e39 7f31 9b3b
00000350: 559f a0be 9fd5 b8bd 70f6 01bf df3d 3d3e
00000360: 0154 7bbe c2ae 6fbe a510 92be 4296 cbbe
00000370: 6899 eb3d c6bc 47be 7d73 a33e 57a8 3abe
00000380: ff34 2b3e b37b 18be 8771 173f 4ec9 3abe
00000390: 088b acbe 20c6 c2be f6b1 1c3e 9057 eb3e
000003a0: 1272 4a3e d3e9 aabd 5b1a fbbd c20a 453f
000003b0: fd11 6b3d f45b d13d e0ac 4a3d 3413 873e
000003c0: f671 ef3d c563 bd3d 8fc1 d73e 5a47 b93e
000003d0: bcda d6be 09c3 b23e 9e44 fc3e 3566 89bd
000003e0: 55d2 333e a20d 293f aea0 62be 1e4b 35bf
000003f0: 3f71 adbe be0d 15be cd0d 85be 90d3 9d3e
0.5399724 -0.010994302 0.06297619 -0.28623718 0.17963444 0.3682215 0.34729958 -0.031636883
-0.0947979 0.23009144 0.293407 0.11583981 -0.1322859 0.40004203 -0.12468904 0.32161248
0.5181099 0.18388963 0.21812303 -0.12281947 -0.36376032 -0.056153055 0.28408247 0.29452443
-0.17072836 -0.31060332 1.1162524 0.10250645 0.24967085 -0.07292154 -0.06801082 -0.8305822
-0.06211117 -1.538015 -0.33227435 0.2988337 -0.42407507 -0.48856902 -0.6278195 1.0610298
-0.05332828 0.064776585 0.46947727 0.590722 -0.24480481 0.16017675 0.6829993 0.21698561
0.045385968 0.58807456 -0.4152043 -0.66070485 -0.5440913 0.33661562 -0.48059767 0.09986394
0.03427719 0.35300934 0.3273317 0.07444528 0.30129007 -0.5838214 0.33876422 0.36007142
0.4113221 0.0019321741 -0.096724615 -0.43260902 -0.49798504 0.062168356 -0.15943652 0.36357388
-0.14538425 0.3591259 -1.3516334 0.27977946 0.030368766 -0.52736515 0.41941643 -0.4328364
0.2051593 -0.18115963 0.3049486 -0.1067492 -0.11375479 -0.005015464 0.3202138 -0.18567565
0.15236096 0.34002307 0.5430857 0.325192 -0.22790095 0.106355764 -0.43985757 0.66900325
0.5024673 0.40472734 -0.13220885 -0.061154395 0.5356313 0.07810477 0.4903726 -0.51621944
0.40272838 0.26064453 0.51985234 -0.13531862 -0.54184145 0.19671021 0.42077982 0.096901864
-0.88304365 0.12527424 0.19304031 0.55344504 0.79230374 0.28330114 0.33468348 0.24480917
0.45644853 -0.2710306 0.36562786 0.16075288 -0.11575523 0.15303457 0.19283785 -0.12863299
0.1513713 0.3693677 0.18091778 0.27584788 -0.5195628 -0.11233257 -0.38063097 0.48769242
-0.29030296 0.067966245 0.36850557 0.071653605 -0.22429737 -0.08244032 0.5101139 0.31096232
-0.09018798 -0.09706373 0.64638007 0.04617775 0.28480005 0.40518776 0.031539265 -0.7156822
-0.3669918 -0.48222622 -0.5123713 0.24668203 -0.34234545 -0.40920305 -0.20165272 1.390476
0.22844447 0.17506346 0.56109434 -0.19665319 0.23093213 -0.11056583 0.4783937 0.11121704
-0.074785985 -0.0077796658 0.32867742 0.5694754 0.026301693 0.1813833 0.04037355 0.8248047
0.20864993 0.06439135 0.09435885 -0.2702055 0.116482854 -0.26835158 0.27039754 0.04513292
0.36338782 -0.9162968 -0.2899683 -0.3874797 -0.23867978 -0.24063367 0.011186668 0.110760055
-0.32479927 0.46995038 -1.472986 0.6602816 -0.36129856 -0.17864907 0.69112724 -0.21000817
0.21876866 -0.21528761 -0.2221367 0.2738105 0.10274922 -0.80737185 -0.31666276 -0.26601014
-0.29559425 0.2746538 0.0001514894 0.004736125 -0.3137156 -0.0902512 -0.5076666 0.18480633
-0.24543764 -0.23406509 -0.28528324 -0.39763075 0.11503869 -0.19505605 0.31924048 -0.18228279
0.16719435 -0.14890938 0.59157604 -0.18240854 -0.33699822 -0.38041782 0.15302262 0.45965242
0.19770077 -0.0834538 -0.12260886 0.7696954 0.0573902 0.10222617 0.049481273 0.26381838
0.11691658 0.09247545 0.4213986 0.3618725 -0.41963756 0.34914425 0.492711 -0.067089476
0.17560704 0.6603643 -0.22131607 -0.70817745 -0.33875462 -0.14556023 -0.25987092 0.30825472

lstm.bias_ih_l0 f4 [80]
00000000: 0540 d53e c8b6 8a3e 028b 353d 84d1 823e
00000010: df87 42be e0a4 923d ed60 b43d 7b8d ac3e
00000020: 2b7a 7abe 0dd0 343e 9212 883c 35df 863d
00000030: 78ce ee3d 6010 6cbd 5f4c 2a3f b995 0fbe
00000040: 1c67 a33e 4f9c 203e 42e6 c2be 2ff3 65bd
00000050: 1149 e83e c717 f03d 6be5 e03c e48e 113e
00000060: fc30 6a3e adc5 a43e 07c0 5a3e 97fa ab3d
00000070: 78d1 083e d09f 463e ed99 31be 9ea0 8e3e
00000080: a367 353e 6790 8e3e 9f07 0c3e 777b f0bd
00000090: 0978 c73e 79c0 ff3e 2d87 e63e f192 913e
000000a0: f7e0 ed3d 45c0 9b3c e782 903d f96c 1abe
000000b0: bb02 dbbb 1ecc 433e 35dd 433e 5acb d53d
000000c0: 2c2b df3d 4351 193e 1fec 233a d278 1dbc
000000d0: f3ab 64be 06b0 ae3d 4757 14be 5bc3 5f3e
000000e0: 36c6 993e 21f6 44bd e579 023e 4202 d23d
000000f0: fffc 1f3e e2ff ea3e 4f20 813d c901 cb3d
00000100: d0a9 c1be 3d2a 033f 8d4b f13e c240 d83e
00000110: 0af0 afbc 367f 3c3f efec 0a3f 6b1d 2f3f
00000120: df74 13be 3de3 d23e 6d60 1a3f 8afb 5d3e
00000130: a28d 833e dc59 7b3f 7287 b23e 0b1e cf3e
0.41650406 0.27092576 0.04432202 0.25550473 -0.18997143 0.07160354 0.088075496 0.3370169
-0.24460666 0.1765749 0.016610418 0.06585542 0.116604745 -0.057632804 0.66522783 -0.14021958
0.31914604 0.15684627 -0.38066298 -0.05614012 0.45368245 0.11723285 0.027453145 0.14214665
0.22870249 0.32182065 0.21362315 0.083974056 0.13361156 0.19396901 -0.17343874 0.27856916
0.17715316 0.27844545 0.13674782 -0.11742299 0.38958767 0.49951532 0.45025006 0.2843242
0.11615174 0.01901258 0.07056218 -0.15080632 -0.006683675 0.19120833 0.19127353 0.10439177
0.10896906 0.14972405 0.00062531413 -0.009611325 -0.22331218 0.085296676 -0.14486419 0.21851866
0.30034035 -0.04808629 0.12741812 0.10254337 0.15623854 0.45898348 0.063049905 0.0991245
-0.3782487 0.51236326 0.47127953 0.42236906 -0.021476764 0.7363161 0.5426778 0.68404263
-0.14400052 0.41188994 0.60303384 0.21677986 0.25693995 0.9818399 0.34868962 0.40452608

lstm.bias_hh_l0 f4 [80]
00000000: 5c28 4f3e b8a2 383c dad3 70bc c891 ef3d
00000010: 7822 eb3d 61d9 7fbd ace2 cd3d d4c5 10bd
00000020: d7e0 f33d 4383 843d 9973 06bc 2ec6 283e
00000030: 82d9 dbbb 7b1d 493d ab34 9c3e 3db0 14be
00000040: 1af9 c13e ddc8 dc3d dc6b c5be 67c4 b33d
00000050: d1a3 cc3e f17c 513e d451 813d ed94 b63d
00000060: 6773 923e f9eb ac3e 4beb ad3e 529d 563e
00000070: f60d 993e b179 a13d 86b1 913d d44f 773e
00000080: 7d35 883e 0076 563e f88e 973d 1046 abbd
00000090: e14a b43e 882d 963e 356c 8b3e 5d06 433e
000000a0: 5ecb cdbd 4ab0 d9bd 29c6 c13d 3b23 8fbd
000000b0: cff1 94bd fb07 363d 3449 743e 9cb2 633e
000000c0: c0bb 0abe 4b95 943e dcd9 273e 7ce3 6e3e
000000d0: 6dea 47be a2a7 7abc ee60 5c3e 397b 713e
000000e0: ce03 e43b f499 4f3e ef1f e2bc 6976 0dbe
000000f0: b4fc 1e3e 1f34 a73e b071 853d d01b 433e
00000100: a6cb 4e3d e3a7 103f 76e0 1d3f c2f8 d03e
00000110: eb3c 33be 1430 273f 1266 453f 651f 453f
00000120: 0f32 7b3e af9d b33e 1644 023f bbfc 003e
00000130: 7bf6 553e 18f6 753f 0d20 123f eb5f e43e
0.2023024 0.011269264 -0.014698947 0.116977274 0.11481184 -0.062463168 0.10053 -0.035344914
0.11908119 0.06470349 -0.008206272 0.1648185 -0.0067092786 0.04910038 0.30508932 -0.14520355
0.37885362 0.10780499 -0.38558853 0.08777695 0.39968732 0.20457818 0.063144356 0.08915124
0.2860367 0.33773783 0.33968577 0.2095845 0.29893464 0.07884539 0.07113938 0.24151546
0.26603308 0.20943451 0.07400316 -0.08362973 0.35213378 0.29331613 0.27230993 0.19045396
-0.10048555 -0.106293276 0.09461624 -0.069891416 -0.07272684 0.044441205 0.2385605 0.22236103
-0.13548183 0.29020151 0.163917 0.23328966 -0.1952302 -0.015298756 0.2152135 0.23582162
0.0069584614 0.20273572 -0.027603118 -0.13814701 0.15526086 0.32656953 0.06515825 0.19053578
0.050487183 0.56506175 0.61670625 0.40814787 -0.17503707 0.65307736 0.7710887 0.7700103
0.24530815 0.3508124 0.5088514 0.12596409 0.20894806 0.96078634 0.57080156 0.4460443

fc.weight f4 [6, 20]
00000000: 5e7f d6bf b2b1 3abd 3321 c43f 36d4 423f
00000010: d411 c1bf 1302 083f ffbf a1bf 0cfa 5ebe
00000020: 6144 e23f ab0f 753f 4289 bc3e fd75 a1bf
00000030: 4e8c cd3f 3212 d03e 74fc aebe 1c7c c5bf
00000040: a384 cd3f ce05 95bf a567 9f3f 9b51 25bf
00000050: aca2 3b3f 559d b7bf bb1c c1bf b080 89bf
00000060: a953 373f 924d 0cbe 657d 00c0 2da1 f5bf
00000070: 024a 80bf b627 81bf 94d8 253f f129 ec3e
00000080: 241f 8e3f 4417 403e 12df 0c40 684c 9dbe
00000090: 91f2 b73f 2ba3 673e b610 673f 6194 06bf
000000a0: eede 2dbf 8508 4b40 c1de edbe 20f1 13be
000000b0: 992b ab3d 06c2 3bbf 9fa2 173f 5901 0040
000000c0: a421 fe3e 9422 e1be 0994 ec3e 1ffc b93f
000000d0: ce39 343f a101 09bf df05 1a40 a43f b8be
000000e0: 99f1 4f3f 33db ac3e 367f 28bf 2493 033f
000000f0: b1f7 273f 348a 95bf 31e2 af3f ccab 17bf
00000100: eab0 be3e b4e1 713d f9e4 2a3f 874d 14bd
00000110: 0a6d ebbe c969 f8be 4527 033f 8a49 4fbf
00000120: 557b 96bf 67e8 68be 945d 0cc0 cdec 353f
00000130: a4b8 aabf 56e9 963e 5e2b adbe 8315 223e
00000140: ac6a 243e 847d 7cbe b2bb ccbe 69de a140
00000150: 2f38 4b3e 7e57 f9be 5ce3 41bf 65b7 52be
00000160: c09e 08bf 33aa 3a40 a6e5 0bc0 1c9e 00c0
00000170: 559f 7cbe 1f32 833f 288f 11bf be80 8bbe
00000180: 7ad9 28bf a505 59bf a065 803e 4cb6 90bf
00000190: 88f1 b7bf 8643 20bf 61ab a7bf ee35 873f
000001a0: e207 c3bf d3f7 d63f 5593 833f 8f29 6bbf
000001b0: d3a1 b23f 602c 423f 54fb 61bf fc05 fe3f
000001c0: d961 8bbe f789 7e3f 8199 f2be 3c6c 463f
000001d0: bad9 23be fba2 85bf a366 86be 6d8c 78bf
-1.6757619 -0.04557962 1.5322632 0.7610506 -1.5083566 0.53128165 -1.2636718 -0.21775073
1.7677118 0.9572703 0.3682347 -1.2614132 1.6058443 0.40638882 -0.3417698 -1.54285
1.6056103 -1.1642396 1.2453505 -0.64577645 0.7329509 -1.4344889 -1.5086893 -1.0742397
0.7161203 -0.13701466 -2.0076535 -1.9189812 -1.0022585 -1.0090244 0.64783597 0.4612575
1.1103253 0.18758875 2.2011151 -0.30722356 1.43709 0.22620837 0.90259874 -0.5257016
-0.6791829 3.172395 -0.4645901 -0.1444745 0.08357925 -0.7334293 0.59232515 2.0000823
0.4963504 -0.43971694 0.46206692 1.4530066 0.704007 -0.5351811 2.4066083 -0.35986054
0.81228024 0.33760986 -0.6581911 0.51396394 0.6561232 -1.1682801 1.3740903 -0.59246516
0.3724435 0.059053138 0.66755635 -0.03620675 -0.45981628 -0.48518208 0.51231796 -0.80971587
-1.1756388 -0.22744904 -2.1932116 0.71064454 -1.3337598 0.29474896 -0.3382215 0.15828519
0.16056317 -0.24657255 -0.3998695 5.0583997 0.19845651 -0.48699564 -0.7573755 -0.20577772
-0.53367233 2.9166381 -2.1858916 -2.0096502 -0.24670155 1.0249671 -0.56859064 -0.2724666
-0.6595684 -0.8477424 0.25077534 -1.1305633 -1.4370584 -0.6260303 -1.3099176 1.0563333
-1.5236781 1.679438 1.0279337 -0.9186029 1.3955635 0.7584896 -0.8827412 1.9845576
-0.2722309 0.9942927 -0.4738274 0.775089 -0.16001025 -1.0440363 -0.2625018 -0.9708927

fc.bias f4 [6]
00000000: 9cf6 03bf e1ec 5ebc bbaf 863e a05c ee3d
00000010: 09e5 053e c9dc 67be
-0.5154817 -0.013606281 0.26305947 0.116387606 0.13075651 -0.22642817
